checkpoint.pth (torch, 29207 bytes, 6 tensors)

fc1.weight f4 [64, 37]
000000 e0 a8 30 be 11 2a 0e 3e 72 40 89 be e8 32 df bc
       -0.1725192 0.13883235 -0.2680698 -0.027245954
000010 6b f5 8e 3e 0d 5e 60 3c 45 53 ff bc b3 69 cc bb
       0.27921614 0.013694298 -0.031167636 -0.0062381863
000020 91 99 b8 bd 1f 96 a4 bc 65 6e f3 3c cb e5 9b bc
       -0.090136655 -0.020091115 0.029715726 -0.019030472
000030 f5 17 2c 3e ca 0e 80 be 1b 9f bc 3c 19 2b 9b 3d
       0.16806014 -0.25011283 0.023025086 0.075765796
000040 84 6b 8e be 87 2e d8 bd c6 90 00 3e e7 ff 53 be
       -0.27816403 -0.105557494 0.12555227 -0.20703088
000050 b4 5f e8 3c 8b 58 6b be ad 93 00 3e aa f5 17 3d
       0.028365947 -0.22982995 0.12556334 0.037099518
000060 82 1e 98 be aa b4 42 3e 4d 5c b9 be 47 ad b8 bc
       -0.29710776 0.1901423 -0.36203232 -0.022543563
000070 fb f4 0f 3c 46 77 94 be f1 1d 59 bd 33 f3 0c bd
       0.008786435 -0.28997248 -0.05300707 -0.03441162
000080 c6 3d 9c bd 14 6e 93 be e0 68 0b 3e 8e c5 db 3d
       -0.0762897 -0.2879492 0.13614225 0.1073104
000090 88 1c 19 bd 19 19 ae 3d a2 d2 27 3e 3b 41 98 bd
       -0.037380725 0.08500881 0.16388944 -0.07434317
0000a0 e7 5e be be f5 77 e4 ba b2 68 db 3d 3f 68 21 3c
       -0.3718178 -0.001743077 0.107133284 0.009851514
0000b0 89 32 4f be 1e 5a 00 bd 9a f0 d3 be a4 2b 28 be
       -0.20234121 -0.031335942 -0.41394502 -0.16422898
0000c0 ab 34 b3 bd 8b 0b 25 be aa db e0 bd b9 d0 73 bd
       -0.0875028 -0.16117685 -0.109793976 -0.059525225
0000d0 b1 53 5d 3d 1f fb 48 be f5 e5 60 bd ff 9a 37 3e
       0.054034892 -0.19627045 -0.054906804 0.1793022
0000e0 97 09 98 bd 4a d2 0b be e8 6d a5 bd 36 38 80 bd
       -0.07423704 -0.13654438 -0.080776036 -0.062607214
0000f0 7b 10 74 be 47 47 95 3c 71 bf 89 3d 0c 1d 6c be
       -0.23834412 0.018222464 0.06725968 -0.23057956
000100 44 93 e2 bd b3 5c a0 bd cf 14 26 3e 49 30 5c bd
       -0.11063245 -0.07830181 0.16218875 -0.053756986
000110 17 94 c8 ba 6d de 27 3d 9c 08 32 bc 7c c3 bd 3e
       -0.0015302923 0.040983606 -0.01086631 0.37063205
000120 5e 2e 4e bc f6 69 44 3d c4 c4 68 bc 78 2d c9 bb
       -0.012584297 0.047952615 -0.014207069 -0.0061394535
000130 59 3a 13 bc 90 26 0d bd 11 11 08 3e fa cd 36 3c
       -0.008986079 -0.034460604 0.1328776 0.011157507
000140 ae 9d cd 3d b0 92 d9 ba e2 09 ed 3d 99 aa 69 3d
       0.10039841 -0.0016599502 0.115741506 0.05704746
000150 d2 ae 12 3b f9 89 f6 3c 0f 53 52 3c e2 99 cb 3d
       0.0022382033 0.030095087 0.0128371855 0.0994146
000160 61 b6 c7 3c e2 86 86 3e a9 f8 46 bf 09 c8 ae be
       0.024378957 0.26274782 -0.77723175 -0.3413699
000170 bb 37 cd be 99 8d d5 bf ab 4b 29 bd 85 b9 02 bd
       -0.4008158 -1.6683837 -0.04133193 -0.031915206
000180 e8 52 8a 3c da b9 27 bd c2 f1 a5 3d 42 99 71 bc
       0.016885236 -0.040948726 0.08102752 -0.014746012
000190 34 68 19 3c 17 a7 57 ba 94 fd 93 3d 8f 26 21 3c
       0.009363223 -0.00082264974 0.072261006 0.009835853
0001a0 53 17 35 3d 0c f2 83 3d 0f 41 94 bc 03 20 e3 3b
       0.044211697 0.06442651 -0.018097429 0.0069313063
0001b0 39 18 05 be 0b 58 a5 3c 32 0c e5 3b 05 86 fe bc
       -0.12997521 0.020183584 0.006989979 -0.031069765
0001c0 fb d9 1c bd d6 15 0b 3e 7d 10 67 bc 0a ef 75 bb
       -0.03829382 0.13582548 -0.014103052 -0.0037526512
0001d0 1c 74 ab 3e 93 75 d4 be 05 7c b2 be 6b 22 0b bf
       0.33487022 -0.41495952 -0.34860244 -0.5434939
0001e0 54 84 d5 bf 40 d6 ac bd 65 34 18 bd e0 67 73 bd
       -1.6681008 -0.084393024 -0.037159342 -0.059425235
0001f0 82 0d 9e bd b2 b6 48 bb bf 1e 99 bc aa a3 ea 3d
       -0.0771742 -0.0030626473 -0.018691419 0.11456998
000200 f2 0f c2 3d fd 80 e4 3d 18 0e 97 3d 3e 5c a3 bd
       0.094756976 0.11157415 0.07375735 -0.07976578
000210 b8 2d 82 bd 49 c3 4f 3b c3 b6 e3 bc fa f4 0a 3e
       -0.063563764 0.0031702092 -0.027797109 0.13570014
000220 e1 d0 20 3e 38 5c d5 3d 52 a6 11 3e d8 b0 4f 3d
       0.15704681 0.1041798 0.14223602 0.05070576
000230 4b a9 9d bb 27 40 e5 3d 50 96 07 3e 32 99 fc 3d
       -0.004811441 0.11193877 0.13240933 0.12333907
000240 2b 86 5d 3e c8 7a 0d 3e 02 83 72 bc ba 92 67 3b
       0.21633212 0.13816369 -0.0148017425 0.0035335259
000250 43 a5 19 bd 52 81 89 be bf 97 ac 3d 3c 24 01 be
       -0.03751112 -0.26856476 0.08427381 -0.12611479
000260 06 33 58 bd de 29 62 bd 8b 68 97 bd b3 7f c7 bc
       -0.052783035 -0.05521571 -0.07392987 -0.024352884
000270 ce bd e9 3d 5c 94 df 3e 35 87 45 be 2d e7 98 3c
       0.114131555 0.43667877 -0.19289859 0.01866492
000280 74 75 8a 3e b6 3c cd bd fb 41 c2 bc cc 4c 74 bd
       0.27042735 -0.10021345 -0.023713103 -0.05964355
000290 5d 3b 37 3e 2b 73 c2 bd 2e e4 18 3e 36 c4 f4 bc
       0.17893739 -0.09494623 0.14930794 -0.029878717
0002a0 3f 56 08 3d 93 4a 81 3b 22 3f 91 3b 07 59 03 3d
       0.033285376 0.0039456575 0.004432575 0.032067325
0002b0 a5 f3 4c 3d ab ca ee 3c bc bf 0c bc 54 c4 b0 3d
       0.050037045 0.029149374 -0.008590635 0.086311966
0002c0 36 2d 2f be 6f 8f ba bd 44 5d e2 3d 8c fc 72 bd
       -0.1710709 -0.09109389 0.11052945 -0.05932288
0002d0 fa ce 57 be 03 c9 b0 be 41 be 61 be 0e aa 1d 3d
       -0.21075049 -0.3452836 -0.22045232 0.038492255
0002e0 15 69 4f bc 46 57 4f bc 93 b8 85 3b b4 e1 dc 3c
       -0.012659331 -0.012655085 0.004080841 0.026963092
0002f0 23 cc f4 3c 61 ff 4b 3d d2 86 95 3d fa b5 b7 3d
       0.029882496 0.049804095 0.073011056 0.08970256
000300 17 e6 6d 3d 3b 5e d4 3d 12 55 9b 3d 16 20 37 3d
       0.05808076 0.103695355 0.07584585 0.044708334
000310 fd f5 c6 3d c9 8b 8c 3d 06 b2 e5 3d ee 72 8d 3d
       0.09714887 0.068625994 0.11215596 0.06906687
000320 46 c2 3c 3d e0 02 5b 3d df 2d 6b 3d ba 56 9d 3d
       0.04608371 0.05346954 0.057416793 0.076825574
000330 a8 70 11 bd 8c c7 de bd d8 05 81 bd 08 1a 95 bd
       -0.035507828 -0.10877904 -0.06299943 -0.07280356
000340 6a 25 73 3b 5e 8a 8b 3d 2e d9 d0 3b ae 0e 43 3d
       0.0037101158 0.06813501 0.006373546 0.04762142
000350 5d c5 80 3d b0 34 82 3d 73 56 94 3d e9 a6 82 3e
       0.06287644 0.063577056 0.072430514 0.25517967
000360 74 40 1a bf c7 39 ee be 23 37 11 bf 6a 40 02 c0
       -0.602546 -0.46528456 -0.56724757 -2.0351815
000370 e1 79 0c 3c 31 85 be 3b fe b3 3a 3d bf 5f d7 3d
       0.00857398 0.0058142175 0.04558181 0.10516309
000380 8e 30 ee 3d 69 94 0a 3e bd 67 2d bd eb c3 b0 bc
       0.11630355 0.13533176 -0.04233526 -0.021577796
000390 7b 0a dc bb 90 0e d5 bc 24 bc 37 3d 26 6c 14 be
       -0.0067151166 -0.02600792 0.04485716 -0.1449438
0003a0 a1 89 30 3e 1f 21 b3 3d e7 c5 04 3e 44 de db 3c
       0.17240001 0.08746552 0.12966119 0.026839383
0003b0 e2 e3 f5 bd 7a 4c 7e 3e 2e 8c 89 be 45 55 76 bd
       -0.12006356 0.24833861 -0.2686476 -0.060139913
0003c0 74 2b a1 be a2 ab 9c bf fb 5f 5d ba 05 3e 02 3d
       -0.31478465 -1.2239878 -0.0008444783 0.031797428
0003d0 6c 8c 5e bd a7 ab e8 bd 26 a0 cc bd f5 88 b7 3d
       -0.054333135 -0.11360865 -0.099914834 0.08961669
0003e0 03 46 b2 bc 8d 71 52 3d 59 76 c6 3d aa 74 00 bd
       -0.0217619 0.05137782 0.09690542 -0.03136126
0003f0 d7 63 ff 39 5b b1 a1 3d e2 59 48 3d 4a f1 7b 3d
       0.00048711777 0.07895156 0.048913844 0.061509408

fc1.bias f4 [64]
000000 a5 64 aa bd 9b e3 3d be bd 4d 03 3e ca ec 27 3d
       -0.08319978 -0.18543856 0.12822624 0.040997304
000010 f7 e1 41 3c b0 bc ec 3d e2 bd 64 bd 80 8f c6 bd
       0.011833659 0.11559427 -0.05584515 -0.09695339
000020 4a 29 b3 bd 16 4d da 3d 33 2c a0 3b 2f 96 ee bd
       -0.0874811 0.10659234 0.0048880815 -0.11649739
000030 1f fc f8 3d 21 13 0d be 6a 4f e4 bd c6 d2 44 3d
       0.12157463 -0.13776828 -0.111479595 0.04805257
000040 95 15 4c 3d 64 37 86 bd c4 77 d9 3d cd 1a af 3d
       0.04982527 -0.06553534 0.106185466 0.08550034
000050 e0 b7 9b 3d 11 72 ec 3d cc 4c b9 bd 4a f0 8b 3b
       0.07603431 0.11545194 -0.09047851 0.004270588
000060 61 17 06 3e 72 ce e6 3d 60 bf f0 bc d5 19 80 bc
       0.13094856 0.11269845 -0.02938813 -0.015637318
000070 09 74 2e 3e 87 01 b5 bd 1d 4c a7 bd d1 ae c8 3c
       0.17036451 -0.08838182 -0.08168814 0.024497421
000080 4f 07 e2 bd 5c 34 1c 3e 9c e1 2e 3e 7c 71 14 3d
       -0.1103655 0.15254349 0.1707825 0.03624104
000090 1a e5 75 3d f5 08 ba 3d 05 9c af bd 0e fb 23 3e
       0.06003294 0.0908374 -0.0857468 0.16013739
0000a0 8b 57 27 bd a7 46 33 be b9 22 a2 bd 3e e7 8b bc
       -0.04085497 -0.1750742 -0.07916779 -0.017078038
0000b0 4c 9e 96 3d d1 9b 42 bb e4 94 65 be e0 e8 47 3d
       0.073544115 -0.0029694925 -0.22420079 0.04880607
0000c0 c3 08 13 bd d0 35 e2 3b 5b 65 18 3e 2e 22 0f bd
       -0.035897028 0.0069033876 0.14882414 -0.034944706
0000d0 65 ca 98 bd 1d 61 e9 3d 19 6a e8 3c 20 5a 55 3c
       -0.07460479 0.11395476 0.028370904 0.013021976
0000e0 21 02 a3 3d ee 4b 99 bd 36 07 1b 3d b8 c1 e0 3d
       0.079593904 -0.074851856 0.037848674 0.10974449
0000f0 aa 2d 2c 3d 56 3f ef bd 1d 45 68 bc 68 09 e0 bd
       0.042035736 -0.11682002 -0.014176634 -0.10939294

fc2.weight f4 [64, 64]
000000 94 15 06 3e e2 f9 90 bd 44 18 ac 3d 8a 13 83 3d
       0.13094169 -0.07078911 0.08403066 0.06400211
000010 de 33 19 3e 7e e7 5e 3e 8e a2 c7 3d 8a 7b 52 3d
       0.14961192 0.21767995 0.09747802 0.051387347
000020 ca 20 29 bb 46 3c 47 3d 23 2c 02 be 73 f5 eb bc
       -0.0025806897 0.048641466 -0.1271215 -0.028803563
000030 e8 58 92 3c 98 86 ea bd 9a 31 41 3d 4d f9 9b 3e
       0.01786466 -0.11451453 0.047166444 0.3046364
000040 34 0b 8c 3d 63 40 91 3c 63 0e 81 bd 2b a2 0b bd
       0.06838074 0.017730897 -0.06301572 -0.034090202
000050 83 6d 1c 3e 65 18 e7 3c 17 1a a0 3d c0 1b 1c 3e
       0.1527615 0.028209874 0.07817476 0.15244961
000060 59 d6 40 3e 62 cd 0b bd 6f ca 8c be e3 82 13 3e
       0.18831767 -0.034131415 -0.27498195 0.14405398
000070 4b 27 17 3e c8 8a 22 be fa e1 4c bd 8e 2a 66 3d
       0.14761083 -0.15873253 -0.050020196 0.056192927
000080 40 55 1a 3a c1 43 99 3c 90 05 71 3e ed b6 c3 3c
       0.0005887337 0.018709065 0.23537278 0.023890937
000090 5b ea a4 3c e2 72 40 3e 8a c2 2a be 07 c7 84 3e
       0.02013128 0.18793824 -0.16675773 0.25933096
0000a0 a3 6b 48 3d 18 8c 00 be 43 e6 a2 3d c9 bf d4 bc
       0.048930775 -0.12553442 0.07954075 -0.025970357
0000b0 4d 5d b1 bd c2 a3 aa bd 9a 4c ed bc 2e ca 18 3e
       -0.08660374 -0.083320156 -0.02896719 0.14920875
0000c0 06 29 84 be 66 5c 0d bd 12 ea 94 3d 59 87 39 bd
       -0.25812548 -0.034511946 0.07271208 -0.045295093
0000d0 aa 94 5c 3c 4a c2 15 3e dd 30 92 bd ed ce 5d bd
       0.013463179 0.14624897 -0.07138226 -0.054152418
0000e0 49 b8 f3 3d 54 75 a8 bb f2 41 7d bd 3b a8 f0 3d
       0.11900384 -0.0051409397 -0.06183047 0.117508374
0000f0 26 bf 21 3e 3d 65 9a bd 0c 02 15 3d 6d db 16 3e
       0.15795574 -0.07538841 0.036378905 0.14732142
000100 39 bd 2e 3e 2a 0c 16 3d b7 c7 49 3e 72 f8 26 3e
       0.1706437 0.036632694 0.19705091 0.16305712
000110 81 a1 87 bd d9 a7 8b be f1 57 84 3d ec d4 56 be
       -0.06622601 -0.27276495 0.06462086 -0.20979661
000120 da 0b 31 3e 8d f8 f5 bc a1 3a 0a be 27 73 68 3d
       0.17289677 -0.030025745 -0.13498928 0.056750443
000130 4f ff 79 3b 01 c2 30 3d 84 78 a1 3b ec cc a4 3e
       0.003814656 0.043153767 0.0049276967 0.32187593
000140 e8 0f ad 3c 4b 80 0f be f2 14 1c bd a4 ff 01 bd
       0.021125749 -0.14013784 -0.038105913 -0.03173794
000150 1e de c9 bb 1b e5 29 be 95 68 d5 be 95 51 11 bc
       -0.0061605116 -0.16591303 -0.41681352 -0.008869548
000160 8c a3 d1 bd ec 10 2c 3e 3b 37 ca 3c 7d 33 9a 3d
       -0.10236272 0.1680333 0.024684539 0.07529352
000170 b4 95 69 3e 39 0e 0b 3d 3b d1 5c be 4a d6 f8 bd
       0.22811013 0.03394911 -0.2156419 -0.121502474
000180 d9 98 f1 bd 6f dd 9b 3d 5b 25 b4 3d ac 3b cf 3d
       -0.117967315 0.076105945 0.087961875 0.101188034
000190 7d 91 2a bd 70 e8 9c bd 62 70 23 3e f2 61 5c be
       -0.041642655 -0.076615214 0.1596084 -0.21521738
0001a0 f4 da bc bd bf 38 ae 3c 20 57 a7 bd c7 04 76 3c
       -0.092214495 0.021267293 -0.08170915 0.015015787
0001b0 65 15 36 3d 25 c8 88 3e 90 fa 08 3e e0 5c 01 be
       0.044453997 0.26715198 0.13376832 -0.12633085
0001c0 ac 65 6c bd 18 ff 09 3d 81 a2 bf 3d 06 94 5d be
       -0.05771415 0.033690542 0.09357167 -0.21638498
0001d0 b0 23 7d 3b 44 99 9f 3d c6 7f db be d7 c2 ee 3d
       0.0038626008 0.07792905 -0.4287092 0.116582565
0001e0 e6 00 e7 bc 36 31 44 3d d8 4d 17 be 65 94 95 bd
       -0.02819867 0.047898494 -0.14775789 -0.07303695
0001f0 98 cc 94 3d 98 11 b9 3e 68 35 a4 3c 87 8a 87 bd
       0.07265586 0.36146235 0.020044997 -0.06618219
000200 a0 c1 c0 3d 3e f5 c8 3d 03 09 a1 3e 7b e9 02 3e
       0.09411931 0.09812401 0.31452188 0.12784378
000210 06 c3 b3 bd 51 5a 19 bf 47 ed 74 bb 66 27 82 be
       -0.08777432 -0.59903437 -0.0037372874 -0.25420684
000220 fd 50 62 3e e7 8b 30 3d 52 37 b4 be eb 65 92 3d
       0.22101207 0.04310217 -0.35198456 0.071483456
000230 61 27 6d bd ff 7a 94 3d 76 d9 66 3d 35 52 10 3d
       -0.057898883 0.07250022 0.05635973 0.03523465
000240 a4 cc 96 3d 54 d9 5a be 14 a5 07 be f9 21 6f be
       0.07363251 -0.21371967 -0.13246566 -0.23352803
000250 60 1b cf bd 13 38 92 3d bd 1f 89 be ab be 25 bc
       -0.10112643 0.071396016 -0.26782027 -0.01011626
000260 2d 7a bc bc a4 9c 23 be 9c 76 ae 3d 51 df 39 bd
       -0.023007477 -0.15977722 0.08518717 -0.045378987
000270 5f 18 39 bf 75 75 f5 bb 88 06 2b 3e 31 8d d8 bd
       -0.7230281 -0.0074908086 0.1670171 -0.10573805
000280 89 12 39 bc c8 49 bb bc f4 9b 0e 3e 70 57 55 3d
       -0.011295923 -0.02286233 0.13926679 0.05208534
000290 46 40 8b bd fb fc 3b 3d 87 dd a9 3d 54 28 26 3f
       -0.067993686 0.045895558 0.08294206 0.64905286
0002a0 8a 43 8b bd 1c 82 28 be 55 b7 94 3d b0 c5 1d 3d
       -0.067999914 -0.16455883 0.0726153 0.038518608
0002b0 45 30 99 3a f8 9c 54 3e b6 0c 85 3c 89 9e 21 3d
       0.0011687359 0.20763004 0.016241413 0.03945783
0002c0 14 af 42 3e 26 10 09 3d 36 24 49 3d df 3e 36 be
       0.190121 0.033462666 0.0491068 -0.17797421
0002d0 d5 89 f0 bd fc 5d 32 bd 7c 99 7f be c8 b8 ca 3d
       -0.117450394 -0.04354666 -0.24960893 0.098985255
0002e0 f1 df 5d 3c 63 7e ed bc 3a 8f a6 bd 19 0e 36 3d
       0.013542161 -0.02899093 -0.08132787 0.04444704
0002f0 74 e4 d0 3b 5d 87 b4 3e 76 2e 3c bd 41 45 14 3e
       0.00637489 0.35259524 -0.045942746 0.14479543
000300 d1 17 98 3c 80 dc 9e bd 3a 9a 4e 3e 00 01 92 be
       0.018566044 -0.07756901 0.2017602 -0.28516388
000310 bb 9a b6 bd 4a eb 88 be 4d 33 d9 3d 78 9b 1c be
       -0.08916231 -0.2674201 0.10605488 -0.15293682
000320 0a 84 49 3c b4 58 a0 bd 32 48 af be b9 9a 6d bd
       0.012299547 -0.07829419 -0.34234768 -0.058008883
000330 0e 69 0b 3e 93 fe ef 3d f1 b6 35 3d 0b f2 da be
       0.13614294 0.11718478 0.04436392 -0.4276279
000340 dc d9 e5 3c 7e 9e 8a 3c 53 9d 60 3a c2 ff 48 be
       0.028057985 0.016921278 0.0008568365 -0.19628814
000350 8e 1d e7 3d 5e f9 52 3d 60 e1 be bd 0d 7b a9 3d
       0.11284934 0.051507346 -0.093203306 0.08275423
000360 05 04 91 bd 9c 68 8e 3e 63 a4 f7 3d dc 5c ef bd
       -0.07080845 0.27814186 0.12091901 -0.116876334
000370 84 09 21 3f f4 62 57 3d 30 ff 3f be c7 c8 00 be
       0.62905145 0.052584603 -0.1874969 -0.1257659
000380 ad 65 55 be 47 e6 18 bd 49 0e 9d bd 49 63 f8 3b
       -0.20839567 -0.037328985 -0.0766874 0.007580195
000390 98 99 41 be 05 82 ab 3d 64 d7 71 3e 23 ce a0 be
       -0.18906248 0.08374409 0.23617321 -0.3140727
0003a0 ad 32 e0 bd f6 6c 0e 3e 22 19 a3 bd 8a 81 e1 bc
       -0.10947166 0.13908753 -0.07963778 -0.02752759
0003b0 c5 81 33 bd 54 68 ff 3d 90 69 c8 bd 59 ec 10 be
       -0.04382493 0.12471071 -0.097857594 -0.1415266
0003c0 67 ee 19 3d 9e 35 be 3d 8a d6 e8 3c 72 55 44 3c
       0.037580874 0.092875704 0.028422613 0.011983262
0003d0 cc 80 38 bb 9b 02 e3 3d ba 74 d3 be 7e 46 d9 3d
       -0.002815294 0.11084481 -0.41299993 0.106091484
0003e0 3d 8c be 3c dc f7 5d 3d 7c 82 c4 3d 25 c5 ff 3d
       0.02326023 0.054191455 0.095952004 0.12488774
0003f0 c8 8e 0f 3d 6f 41 b3 3e 2a 2b 64 be f0 b1 5f 3d
       0.035048276 0.3501086 -0.22282091 0.054613054

fc2.bias f4 [64]
000000 cd 42 c8 3e 61 bc 15 bd 06 7d 0a 3d e0 62 d0 bc
       0.39113465 -0.036556605 0.033810638 -0.025437772
000010 d7 0d 4d bd dc cb 6e 3e f3 39 b3 bd 94 10 2a be
       -0.050062027 0.23319954 -0.08751287 -0.16607887
000020 51 58 08 3e 06 33 8b 3e 42 26 c8 bd 7c ec c7 3d
       0.1331494 0.27187365 -0.09772922 0.09761903
000030 d8 3e f6 bd 2e ec f1 3e f2 3f 63 bd 08 e2 ca bc
       -0.12023705 0.47250503 -0.055480905 -0.024765983
000040 66 ac 17 bd 4f 68 04 3e fb 0c fe 3d 8d 57 5a be
       -0.037029646 0.12930416 0.124048196 -0.2132246
000050 77 97 82 3b d9 eb 01 3d a4 c6 a5 3d 79 64 4f bd
       0.003985341 0.031719062 0.08094528 -0.050632928
000060 4e f4 aa 3e eb 3f aa 3e 8b 71 cf 3c e6 9e c3 bd
       0.33389515 0.3325189 0.025322696 -0.09551792
000070 80 c7 40 be 78 0f 73 bd 97 1b ee bd 53 ae 7e 3d
       -0.18826103 -0.059340924 -0.11626356 0.062177967
000080 5c f3 62 ba 12 e4 82 3d 03 e5 44 3d c0 61 40 3c
       -0.0008657479 0.06391157 0.048069965 0.011742055
000090 2a 7c ba bd 5a 33 ad 3d 99 13 30 3e 51 60 a5 bd
       -0.09105714 0.0845706 0.17194976 -0.080750115
0000a0 87 24 8d bc ee db 10 be 10 95 49 be 04 1e 9e 3d
       -0.017229332 -0.14146397 -0.19685769 0.07720569
0000b0 35 a3 cf bd e4 e4 ab 3d ab 73 c9 3e 2e a3 a4 bd
       -0.10138551 0.08393267 0.3934606 -0.080389366
0000c0 d8 2f 9d 3e 14 f6 1e 3e 56 59 97 bd 26 9e f8 bd
       0.30700564 0.15523559 -0.07390086 -0.121395394
0000d0 8d fa d2 3d b2 46 02 3e 58 e0 d3 bd 10 87 dd 3e
       0.10301695 0.1272228 -0.103455245 0.43267107
0000e0 d9 e5 20 3e 28 f1 45 bd 68 e5 27 bd bf a5 07 bc
       0.1571268 -0.048325688 -0.040990263 -0.008279263
0000f0 9e f5 46 bc da 80 1e 3e b6 9c 05 3d d0 30 1f 3d
       -0.012143521 0.1547884 0.032620154 0.03886491

fc3.weight f4 [4, 64]
000000 d5 30 54 3e 85 df 2b 3d 96 5a 28 3e 62 94 b0 3e
       0.20721753 0.04196121 0.16440806 0.34488207
000010 7e fb 3e 3e c9 0a 27 3e 1e 9d 97 bd 61 aa 89 be
       0.18650624 0.16312708 -0.074030146 -0.268878
000020 81 40 48 3e c3 d5 13 3e b5 b1 86 be fd 13 0f 3e
       0.19555856 0.14437012 -0.26307455 0.13972469
000030 b9 ba 87 3e 87 5e 42 3e 9f b4 0d bf 88 73 6e bc
       0.26509646 0.18981372 -0.5535373 -0.014553912
000040 30 40 ca bc 79 12 01 3e b3 b1 ba 3e fc a5 5b be
       -0.02468881 0.12604703 0.364637 -0.21450037
000050 54 c6 9a be 8b ea 02 3e af 97 50 bd 1f e3 db 3d
       -0.30229437 0.12784784 -0.050925907 0.10736679
000060 80 a9 0b 3e 6c e6 56 3e 6e 9c 15 3e de 7d 29 3d
       0.13638878 0.20986336 0.14610454 0.041379802
000070 69 0c 92 be bb 28 5a be a7 6b 8b be 1e 03 20 3d
       -0.28525093 -0.213046 -0.2723057 0.039065473
000080 97 3f e8 3c 86 3a 1e bd 8a 6b 41 3e a3 79 5d 3e
       0.028350635 -0.03863003 0.18888679 0.21628432
000090 07 74 a1 bd b3 c5 9d 3e 39 02 04 3e e0 07 0e 3c
       -0.078834586 0.30814895 0.12891473 0.00866887
0000a0 ca 7f 0e 3f 84 88 9d be 6f 45 75 be ea 70 a4 3e
       0.5566374 -0.30768216 -0.23952268 0.32117397
0000b0 e7 d2 14 3d 3b 55 b6 3e 5d 66 e2 3d 05 43 36 be
       0.036333945 0.356119 0.110546805 -0.17799003
0000c0 f3 13 36 3e 1e d4 99 3e f2 7d 82 be 7b 0d da be
       0.17781048 0.30044645 -0.25486714 -0.4258841
0000d0 eb e8 4f 3e d6 5c 06 3d 32 ed f3 3d b3 3b e9 3d
       0.20303695 0.03280338 0.11910476 0.1138834
0000e0 7a 6a 21 3e aa a9 bb 3e be 6d 14 3c c6 59 80 3e
       0.15763274 0.3665288 0.009059368 0.25068492
0000f0 9a 75 72 be d0 d1 98 3e 7b 64 06 3e 5b 4f 1d be
       -0.23677674 0.29847574 0.13124268 -0.15362303
000100 32 7f c9 3d 38 a3 0e 3e cb 1d 3a 3e f2 ed 83 3e
       0.09838714 0.1392945 0.18175428 0.25767475
000110 1f 59 8b be 05 1d 23 3e 79 6d d6 3c 4b e0 13 be
       -0.27216431 0.15929039 0.026175248 -0.1444103
000120 82 4d 39 3e ae 91 d0 3c 8d 88 71 be 49 fa 2a 3e
       0.18095973 0.02546009 -0.23587246 0.16697039
000130 b3 02 97 be fb 63 48 3e 45 02 42 be 0a fd 22 3e
       -0.29494247 0.1956939 -0.18946178 0.15916839
000140 ba 30 d9 bc 0b 39 1d 3e 64 79 98 3e d1 25 67 be
       -0.026512492 0.15353791 0.29780114 -0.2257302
000150 3e 33 b9 ba 09 71 21 3e cd 64 22 3c 50 f7 31 3e
       -0.0014129651 0.15765776 0.009911728 0.17379498
000160 24 01 45 3e 75 33 34 3e 99 9f 3e 3e da f6 c7 bd
       0.19238716 0.17597754 0.18615569 -0.0976388
000170 0a 1c f8 bd 81 1d b7 bd 1c 91 b6 3c 04 6e e6 3d
       -0.12114723 -0.08941174 0.02228599 0.112514526
000180 37 98 29 3e 5f 10 37 3e f3 20 16 3e be 8a ab 3e
       0.16561972 0.17877339 0.14661007 0.3350429
000190 7d 03 be bd 60 a9 7b 3e ee 3e f5 3d 4e 49 c8 be
       -0.09278009 0.2457633 0.119748935 -0.39118427
0001a0 05 d1 9c 3e b5 14 77 be 0a cd 40 be aa c8 8f 3e
       0.3062822 -0.24128993 -0.18828216 0.28082782
0001b0 e9 7f 16 3e c8 d3 e6 3e 99 f0 34 3e 1e 6f 9a be
       0.14697231 0.4508345 0.17669906 -0.301629
0001c0 25 fb fd 3d c0 d2 29 3e eb 82 09 3e c7 71 9c bd
       0.12401418 0.16584301 0.13428847 -0.07638889
0001d0 86 b1 1c 3e 41 5f 91 3d d5 e5 f4 3d 2b ef 0b 3e
       0.15302095 0.07098246 0.119578995 0.13665454
0001e0 f2 cd 48 3e 47 73 04 3f 14 7f 31 3e 92 ed 33 3e
       0.19609812 0.517384 0.17333633 0.17571095
0001f0 a6 8f 37 be 93 ca 95 3e b5 34 96 3e 2b 01 b4 bd
       -0.17925891 0.29256114 0.29337087 -0.08789285
000200 d8 1e 68 3e ef 3a 58 3b f4 c2 4b 3e a2 0b 54 3e
       0.22668016 0.0032994112 0.19898587 0.20707563
000210 29 77 1e be 66 77 f7 3d 51 dd ed bd 53 ed 8a bd
       -0.15475143 0.1208332 -0.116144784 -0.06783547
000220 c4 bb 6f 3e e3 b9 12 3e b4 74 33 3e ab 08 77 3e
       0.2341147 0.14328723 0.17524987 0.241244
000230 72 5f fa be b4 a7 49 3e a0 2e c1 bd 28 2c f1 3d
       -0.48900944 0.1969288 -0.09432721 0.11776
000240 a7 e6 a5 3d 47 74 27 bd ef 20 31 bb a6 7b 56 be
       0.08100634 -0.040882375 -0.0027027687 -0.20945606
000250 99 52 33 be 24 e8 5a 3e 0a 9c 01 bf 8a d4 81 be
       -0.17511977 0.21377617 -0.5062872 -0.25357467
000260 aa f1 f9 3d 06 61 1b 3e a7 1c 7d bd 57 0e d0 3e
       0.12204297 0.1517373 -0.061794903 0.4063594
000270 89 8c 3d be 09 04 51 3e 18 c1 58 3b 53 a9 16 3e
       -0.18510641 0.20411696 0.0033074077 0.1471303
000280 75 74 61 3e 83 28 1b 3e af 08 87 3e c0 e9 79 ba
       0.22017081 0.15152173 0.26373813 -0.00095334277
000290 6d f9 6e be 8e 9a b2 3e 9f 31 88 3e 5e fa 2d 3e
       -0.23337336 0.3488354 0.26600358 0.16990039
0002a0 75 27 b3 3e 98 94 08 bf 65 ce bf be 51 4a c7 3d
       0.3499104 -0.53351736 -0.37462154 0.097309716
0002b0 e0 f3 32 be 2f de b5 3e 67 1c 9e 3e e5 be af bc
       -0.17475843 0.35521075 0.30881044 -0.02145333
0002c0 78 a1 85 3d e6 bd 54 3d 2d 80 61 3e b5 b8 92 be
       0.06524938 0.051938914 0.22021551 -0.28656545
0002d0 85 de 38 3e 22 a9 4a 3d 44 1c 55 bd 7a d1 03 3e
       0.18053634 0.049477704 -0.05202891 0.12872878
0002e0 a8 11 e7 3d ff 86 33 3f a5 72 a0 be a9 28 af 3e
       0.112826645 0.7012786 -0.31337467 0.3421071
0002f0 be 27 f6 be f6 b1 73 3e 98 03 8b 3e c5 ff f3 3d
       -0.48077196 0.23798355 0.2715118 0.119140185
000300 ea 27 62 3e 42 eb 5d 3e 0d 6b 79 3e aa d2 bf 3e
       0.22085539 0.21671775 0.24357243 0.3746541
000310 3e ce ad 3d 93 f7 03 3e eb 8b 1a bd e9 22 75 be
       0.08486603 0.12887411 -0.037731092 -0.23939098
000320 8d be 0b 3e ab 4f f8 3d 44 ed 71 bd 1a bd 64 3e
       0.13646908 0.121245705 -0.059064165 0.22337762
000330 ab 1f 9e 3e 03 af 39 3e 45 73 cd be 14 93 80 3e
       0.30883536 0.18133168 -0.40127006 0.25112212
000340 ea 3f 5b 3e 58 68 e8 3d e0 b0 0e 3f 08 d7 5c be
       0.214111 0.11348027 0.5573864 -0.21566403
000350 67 17 d7 bc a1 b8 87 3e e5 18 24 be 2f a6 53 3e
       -0.026256276 0.26508048 -0.16025122 0.20668863
000360 ff 3e 92 3d b5 a6 94 3d 64 a8 c5 bd 3d 09 f1 be
       0.07140922 0.07258359 -0.096512586 -0.4707736
000370 61 d4 c0 bc d6 a5 48 be e5 4b 32 be 9b dd 00 3e
       -0.02353877 -0.19594511 -0.17411764 0.12584536
000380 b4 bd ab 3e c4 73 17 3e 01 34 94 3e 44 a1 5a 3e
       0.3354317 0.14790255 0.28945926 0.2135058
000390 ae 37 9c 3d 59 b1 a6 3e 2a 20 34 3e 81 31 b9 3e
       0.076278076 0.3255718 0.17590395 0.3617058
0003a0 45 f4 b6 3e 7b c5 a2 bc 58 d5 33 be 2c f4 9a 3e
       0.35733238 -0.019869557 -0.17561853 0.30264413
0003b0 61 e7 2d 3e e6 cb e5 3e 75 19 8c 3e f7 73 6d be
       0.16982795 0.44882125 0.27363172 -0.23188768
0003c0 80 a5 04 3e 75 0d 89 3c 27 c5 44 3e 8d 99 e3 be
       0.12953758 0.01673005 0.19215833 -0.44453087
0003d0 3b eb 58 3d 4b 3d 05 3d 1b 8b a6 be 80 13 22 3e
       0.05295871 0.032529157 -0.32528004 0.15827751
0003e0 93 f5 b5 3e de 45 0f be d7 50 0e bf 60 49 8f 3b
       0.3553892 -0.13991496 -0.555921 0.0043727607
0003f0 74 2c 08 be 76 f1 b1 3d 94 4c 4d 3e 42 55 fc 3b
       -0.13298208 0.08688633 0.20048743 0.007700593

fc3.bias f4 [4]
000000 b5 92 33 3e 5e 4e 69 3e 4d 5c fe 3d 0c e1 5a 3e
       0.17536433 0.22783801 0.12419949 0.21374911
